…
        "outputId": "557cb0a5-16fe-412a-f448-5b317e24b936"
      },
      "source": [
        "# Print model summary\n",
        "print(model.summary())"
      ],
      "execution_count": null,
      "outputs": [
        {
          "output_type": "stream",
          "name": "stdout",
          "text": [
            "Model: \"sequential\"\n",
            "_________________________________________________________________\n",
            " Layer (type)                Output Shape              Param #   \n",
            "=================================================================\n",
            " conv2d (Conv2D)             (None, 98, 98, 16)        448       \n",
            "                                                                 \n",
            " max_pooling2d (MaxPooling2D  (None, 49, 49, 16)       0         \n",
            " )                                                               \n",
            "                                                                 \n",
            " dropout (Dropout)           (None, 49, 49, 16)        0         \n",
            "                                                                 \n",
            " batch_normalization (BatchN  (None, 49, 49, 16)       64        \n",
            " ormalization)                                                   \n",
            "                                                                 \n",
            " conv2d_1 (Conv2D)           (None, 47, 47, 16)        2320      \n",
            "                                                                 \n",
            " max_pooling2d_1 (MaxPooling  (None, 23, 23, 16)       0         \n",
            " 2D)                                                             \n",
            "                                                                 \n",
            " dropout_1 (Dropout)         (None, 23, 23, 16)        0         \n",
            "                                                                 \n",
            " batch_normalization_1 (Batc  (None, 23, 23, 16)       64        \n",
            " hNormalization)                                                 \n",
            "                                                                 \n",
            " conv2d_2 (Conv2D)           (None, 21, 21, 32)        4640      \n",
            "                                                                 \n",
            " max_pooling2d_2 (MaxPooling  (None, 10, 10, 32)       0         \n",
            " 2D)                                                             \n",
            "                                                                 \n",
            " dropout_2 (Dropout)         (None, 10, 10, 32)        0         \n",
            "                                                                 \n",
            " batch_normalization_2 (Batc  (None, 10, 10, 32)       128       \n",
            " hNormalization)                                                 \n",
            "                                                                 \n",
            " flatten (Flatten)           (None, 3200)              0         \n",
            "                                                                 \n",
            " dense (Dense)               (None, 64)                204864    \n",
            "                                                                 \n",
            " dropout_3 (Dropout)         (None, 64)                0         \n",
            "                                                                 \n",
            " batch_normalization_3 (Batc  (None, 64)               256       \n",
            " hNormalization)                                                 \n",
            "                                                                 \n",
            " dense_1 (Dense)             (None, 2)                 130       \n",
            "                                                                 \n",
            "=================================================================\n",
            "Total params: 212,914\n",
            "Trainable params: 212,658\n",
            "Non-trainable params: 256\n",
            "_________________________________________________________________\n",
            "None\n"
…
